hidden_weights.npy (npy, 1408 bytes, 1 tensors)

array f8 [5, 32]
0	0x3fe376d226c4382c	0.6082545048864225
1	0x3ff38deaaed1329c	1.222147639159778
2	0xbfd0b46b6fefdf8b	-0.2610119431624233
3	0x3f91721cd8f79c78	0.017036867849949705
4	0x401aeb15cb0767bc	6.729575321509341
5	0x3fcf65e394e20755	0.24529690522836725
6	0xbfd2816bbd0a4e8b	-0.2891492220016764
7	0xbfda815ccdf29a16	-0.4141456614692357
8	0xbffa02456d72a2cf	-1.6255544925026475
9	0xbfd494f386f3e207	-0.32159126452418757
10	0x3f9cf99cc017c228	0.0282959453815598
11	0xbfad0f09ccee7f24	-0.05675535799605161
12	0x3fe659eba50da854	0.698476621980499
13	0x3fda54dda0fef3a0	0.4114297935701021
14	0xc0110af4461b3906	-4.2606974557986685
15	0xbfa531c6a7a6fac5	-0.041395385709156275
16	0xbfd67410056075f4	-0.3508338978298007
17	0x3fd35b5e7d0e087f	0.3024517270315598
18	0xbfbf67db9e40dac3	-0.12267849553686987
19	0xbfdb3d6b1221b810	-0.4256236722056892
20	0x400695d814c30db7	2.8231660482431056
21	0xbfab13281ed87520	-0.052880529179882396
22	0xbfea297c1d4939a6	-0.8175640651696099
23	0xbfc15161dad0b3d5	-0.13529608902299964
24	0xbfddadbb5df899b4	-0.46372875382294443
25	0x3fe3bae4b7b7619f	0.6165641391954074
26	0xbf9b32f6aa2a96a4	-0.026561597953920782
27	0x3fcdd522a8d0ee65	0.23306687586760969
28	0x401577185e7d3e6e	5.36630389823368
29	0x3fabd099803f1c9a	0.0543258637476864
30	0x3ff02233e9999379	1.0083502888676021
31	0x3fdaf7e16752aa4f	0.42137942400100753
32	0x3f9147b48a9b3d86	0.016875096282829037
33	0x3fdead620b3af583	0.479332457511042
34	0x3fd99c2689102b1f	0.40015567193101903
35	0xbfba94c1cdd184dd	-0.10383235239853002
36	0xbf9d1223436bc934	-0.028389502515844003
37	0xbfdb92a4f1a2f42f	-0.43082545850103576
38	0x4011f677736024e4	4.49069004320447
39	0xbfd4bae5d909e60d	-0.323907339050124
40	0x3fe2e5187a9e843a	0.5904657740503645
41	0xbffccb2fb72dab09	-1.7996060519605541
42	0x4004adc08a194231	2.5848398961027432
43	0xbfcae555519ea947	-0.2101236961874042
44	0xbfed711344e746af	-0.9200531335611312
45	0x3fe8fbc964367576	0.7807356793670539
46	0x3fbbde12dcf68221	0.10885732550242057
47	0x4009c27010a5c24a	3.2199403095803847
48	0x3fd84bf2a0d4486c	0.3796354837987852
49	0x3fd1fb65219cacc7	0.28096893579886423
50	0x401afdb25d61d84f	6.747750720116598
51	0x3fe38be6d86dbbca	0.6108278491136556
52	0xbfb8fdce286551dd	-0.09762276159501178
53	0xbfe2f57882f5d4d0	-0.5924646909540119
54	0x3fb487919cc56367	0.08019361569803395
55	0xbff3532be6c66547	-1.2078055395744103
56	0xbfa9a89f928b125f	-0.050114618910389146
57	0xbfe225c9508f368e	-0.5671125958849232
58	0xbfd8e7d542af1104	-0.38914996635527666
59	0x3fc6ad2732107d01	0.17715921349097388
60	0xbf7fe565f1b68145	-0.007787130565162952
61	0xbfe3ec404d54e868	-0.6225892553695873
62	0x3fea7dd22392291a	0.8278589911217609
63	0x3fbf5a31991de4b7	0.12246999729349538
64	0xbfe44bfd44cd29a5	-0.6342760413911505
65	0x3ff36bcf074d55c3	1.2138204846609006
66	0xbff3008fe3c6fcdc	-1.1876372239637965
67	0x3fd4c82ee983e517	0.32471821598262934
68	0x401adad047f39548	6.713685154192099
69	0x3fdbeaa2a1e0025d	0.4361960011301898
70	0xbfd2bbcd8769a8e7	-0.2927125761404014
71	0x3fe3b5448589cc2f	0.6158774002236721
72	0xbff9934cf1d75b5e	-1.5984620520518642
73	0xbfcbdea7199dc059	-0.2177323222235852
74	0xbfc3ac172663cb23	-0.1536892831278119
75	0xbfd4ac5c6b7c351d	-0.323020081487657
76	0xbfac1bd8dc6b3a28	-0.05489995661411157
77	0x3fb779628ae5d60c	0.09169593707141405
78	0xc01137bfc600f0cd	-4.3044424951624025
79	0x3fc9b99f0ede3215	0.2009772131535931
80	0xbfef0bc3abcc36f1	-0.970186076681527
81	0x3fde990e7eb52326	0.4780918347719755
82	0xbfb8468e66ea1259	-0.0948266030555457
83	0xbfca94ebd314f15b	-0.20766971403817078
84	0x40071c814c9b38e0	2.888918493735318
85	0x3fc3d496c9d89a42	0.15492520194784914
86	0xbfe6668d014aa36a	-0.7000184083200172
87	0x3fde57d26dbc843e	0.47411022869534125
88	0x3fe26206fb008a8a	0.5744662191758192
89	0x3f9bc0bb5f7f2029	0.027102401450776057
90	0xbfe6d8a1b98c152f	-0.7139443038910595
91	0xbfe59aa296028c91	-0.6751263551599483
92	0x401581e358232314	5.376843812126726
93	0xbfd615fbd1a0f695	-0.34509177657660334
94	0x3fe3874f33ef797f	0.6102672590603077
95	0x3fdb648b28954b9d	0.4280116936035315
96	0xbfd0ab3fba70b52e	-0.2604522057252606
97	0x3fe257c5823d0e19	0.5732142966957695
98	0x3fb2641da4747fa2	0.07184014573112887
99	0x3fc5bcfe417d7485	0.16983011434323117
100	0xbfab75622b47bec3	-0.053629939826235005
101	0x3fdb15565d902042	0.42317732941637953
102	0x4011e9782ea369cf	4.477997521137197
103	0xbfc3aaeab77505f9	-0.15365346868388466
104	0x3fdc7c0c6549a68c	0.4450713147294685
105	0x3ff3c5ed05503264	1.2358217437314574
106	0xbffe2372b1315dde	-1.8836543008418327
107	0xbfedc3bdc1de0a8f	-0.9301441942664769
108	0x3fc4c714363e32e3	0.16232540749151445
109	0x3feeb700d1e818e1	0.9598392581690655
110	0x3fba9615708ff885	0.10385259626488803
111	0xc00d12b4ffc529d1	-3.634134290890167
112	0x3fda7cbb9e151ab0	0.4138630908750356
113	0xbfc5060897caf4a5	-0.16424662982709495
114	0x401b0b63bcc18a69	6.761122655213151
115	0x3fb7278142569df5	0.09044654721821373
116	0x3fbc109b7e267e62	0.10962840871661109
117	0xbfe1194b84e515ee	-0.5343377681353425
118	0xbfb900f25e34b3fc	-0.0976706962580493
119	0x3fd83616c05b2633	0.3783013227917735
120	0x3fee10c503c36d98	0.939547068930028
121	0xbfbd2a84460bc4fe	-0.1139300032625847
122	0xbfdb5bd1d8e90cde	-0.42747923071529026
123	0xbfd7436afc60d647	-0.3634898628837146
124	0xbf79cd027986108f	-0.006299028078846316
125	0xbfc705e48c482eb9	-0.17986733293252202
126	0x3fdb26ce88518709	0.4242435771212603
127	0xbf953dd7bfae7763	-0.020743723940192093
128	0xbff119b88ff57b33	-1.0687795279879537
129	0x3ff1ca72d3b69abf	1.1119259138155682
130	0x3fb5f765ff134d97	0.08580625035693
131	0x3fb9c9dcb5996386	0.10073642190526585
132	0x4018cc6fb22f4ef2	6.199644836556887
133	0x3fe259671f91688a	0.5734134308397796
134	0x401156caaf87418d	4.334757559423804
135	0xbff2aee595a02dd2	-1.1676994175676225
136	0xc0005fcec3b4ee7d	-2.0467810906973782
137	0x3ffffd094dd58170	1.9992764511481163
138	0xc009a18a2598eeda	-3.2038767754837467
139	0x3fc57afb59f5afb6	0.16781560795368272
140	0x40030e98ccb31d98	2.3821273796235793
141	0x3fde947c54be032c	0.4778128459511659
142	0x401334568c0c6829	4.801111400849586
143	0x401196ed2486baf2	4.397389002536089
144	0x3faf8b46d9db4a38	0.061609472364257234
145	0x3fe2d93cc02c1896	0.5890182259907017
146	0xc01bea255195b220	-6.978657984506327
147	0xbfe6571c0e25135b	-0.6981334949747223
148	0xc00583563d625878	-2.6891293330800714
149	0xbfed2d5a9ad90b55	-0.9117863678332961
150	0x3fd7734cbb5b1e33	0.3664123372695684
151	0x3ffc7e4b244e15c5	1.780833379570468
152	0xc002d60b207bfbda	-2.3545134103619434
153	0x3ff0b528161e982d	1.0442276824992505
154	0xbfd132ced52eb471	-0.26872607058141457
155	0xbfdd2dd5dea5f26d	-0.4559225725459218
156	0x401672fd30c8d4fb	5.612293970353899
157	0x3fe72abb266c3cdd	0.7239661932416329
158	0xbfe70c0e0fc39f67	-0.7202215488332343
159	0x3fe04e045c621b5c	0.509523563800808
