out_weights.npy (npy, 640 bytes, 1 tensors)

array f8 [32, 2]
000000 af ce 53 cd 3c 14 f2 bf a0 84 ad 82 a2 94 d9 bf
       -1.1299407978630531 -0.3996969486380042
000010 40 31 01 b2 64 87 c4 bf 9f 75 fb 8d a2 2d cc bf
       -0.16038187686570815 -0.22014266903617583
000020 48 48 29 97 06 36 ea bf 48 18 b9 ac 9c 44 d7 bf
       -0.8190949394577354 -0.3635627447841938
000030 0b 86 5a 4b fa 26 df 3f b3 50 ad ac 49 01 c0 bf
       0.48675401076079144 -0.1250393002652622
000040 8b 47 59 00 e1 37 30 c0 f9 3e cf e6 80 47 8a bf
       -16.218276998326058 -0.01283169464468824
000050 78 49 e9 82 81 fd f9 3f b5 1e 05 52 6a ed b9 bf
       1.6243910897943277 -0.10127892019692804
000060 11 8f 62 f7 c9 e4 05 40 20 bb 61 19 f6 7a 22 c0
       2.736713345237043 -9.240158837490128
000070 06 8d 03 04 82 8f ee bf 93 23 da fd 54 2b d0 bf
       -0.955018050994483 -0.25264477529759083
000080 6f 55 c1 f9 a1 a9 11 c0 cf e8 ad 72 44 44 01 c0
       -4.415656950402407 -2.1583336791346492
000090 c9 cf 6d 3f db 38 d3 3f ef 6c 14 d3 1a 14 02 40
       0.30034524149163794 2.25981678873142
0000a0 47 12 4c 0d 07 7f 06 c0 da 8f 94 bc 8b 16 0e c0
       -2.8120251692619465 -3.761008713992834
0000b0 29 b7 27 22 d5 9a c1 bf 31 61 b2 22 f5 58 e3 3f
       -0.1375376145146501 0.6046090772315776
0000c0 2e 8b cf 5e 4c dd 05 40 0a 94 09 45 d5 15 fe 3f
       2.7330558211409857 1.8803303429388074
0000d0 c3 7c c0 23 8e 85 fc 3f 5e 56 e6 2d 07 04 f8 bf
       1.7826062580641497 -1.5009834092101282
0000e0 bb d4 fb 2e 89 e2 1a c0 c7 a9 fc 97 14 14 dd 3f
       -6.721226438637298 0.45435061304547414
0000f0 52 87 09 0c 2b 8f 11 40 1a 7e d3 ad 5f 6d 17 40
       4.389812648850993 5.8568102989516095
000100 c6 f1 ad 46 ce 03 ea bf eb 95 82 cc 18 43 e1 bf
       -0.8129645710428626 -0.5394405359590427
000110 36 14 6b cb fd bc f4 3f 69 16 c5 e7 b3 4a c9 bf
       1.2961404748941852 -0.1975922471703371
000120 31 7e 44 32 b1 86 f7 bf 58 01 54 67 9f 7d 29 40
       -1.4703838313652222 12.745356778149173
000130 e7 d3 b3 09 de 23 f2 bf dc 6f a7 91 8a ce e5 bf
       -1.133756673717693 -0.6814625592046428
000140 08 5c d5 4e e4 69 10 40 54 fd 48 73 4b 05 f0 bf
       4.103409988186293 -1.0012926581692527
000150 6c 8e c3 3c da bf ed bf 90 8e 0f ad 0e 0d d2 3f
       -0.9296694933695568 0.28204695606675845
000160 fc de 2e 19 b5 31 ea bf 6a 6c 09 e7 81 c1 87 3f
       -0.8185677997452951 0.011599554885085978
000170 08 78 8d a4 e1 67 f5 3f c9 8d f5 14 5c 03 ff 3f
       1.3378616741024434 1.9383202379911941
000180 8c ce 71 a9 8a cd fd bf 86 9e c8 1b 7f c4 01 c0
       -1.8626810664108318 -2.2209455652808314
000190 83 e1 bb 4d 83 48 ee 3f ef 48 28 c3 95 af eb 3f
       0.9463516729584146 0.8651837169329876
0001a0 52 0d b1 6b 17 0d ee bf e3 01 be 0a 6f 95 d2 3f
       -0.9390980819083927 0.2903707127479988
0001b0 54 eb aa 89 33 52 ee bf ba 3d 32 ac 08 24 b9 bf
       -0.947534340746055 -0.09820608333597294
0001c0 ef 81 c0 8e b3 d7 1e 40 1c 54 5a 86 3a 3a f1 3f
       7.710645895480851 1.076715969863705
0001d0 61 4a 2d 8f 52 1d d3 3f 01 0f ed ed 52 91 e8 3f
       0.29866470319863053 0.7677397391312014
0001e0 b7 58 72 41 bb df fa 3f 4a e4 54 dd 34 19 fc bf
       1.6796219402799986 -1.7561539312139467
0001f0 94 da c7 69 27 6d f3 3f 53 10 36 5c 7e 03 c3 bf
       1.214148915487077 -0.14854411604403825
